models/cnn_v2.pt (torch, 101558 bytes, 19 tensors)

conv.0.weight f4 [16, 1, 3, 3]
00000000: 2fb2 2cbe c833 b6bc 2adc 1f3e c413 233d
00000010: 3819 193e 3d01 aabe 654a 873e 540e 563e
00000020: be5f 1c3d 5e62 803e 256b 8f3e 57fb 8abe
00000030: 4c30 90bd f8a7 b23c 744d d03c eaf8 53be
00000040: 27c8 8cbe 0948 163e 00e5 a83e 2e53 53bd
00000050: cc95 803b 77ac 323e 003f 133e c6f4 333e
00000060: 21a1 43be fe8f 4d3e 29d9 9a3e 2171 90be
00000070: 295d 8b3e f24e db3d 084b 133d a891 82be
00000080: 3ab8 743e d9bf 85be c02c d3bd e360 8f3d
00000090: 32a2 9bbe fe6e a13e ae6e 7ebe fca3 8a3e
000000a0: 048e 953e 4cc5 79be 70bd 6d3e d1c4 32bd
000000b0: e1db daba 73c3 a63e de44 bb3e faaa 1ebe
000000c0: 20ee 553e a149 6e3e 7be2 72be e725 8a3d
000000d0: 622d 2abe 3dd0 933e 7688 073e e5b1 84be
000000e0: 8573 883d 004e 97be 43c3 a93e 94d5 f6bb
000000f0: 4c4c a43d ff59 86be 5eb2 083e 63af 223e
00000100: 3620 6f3e 5f25 13bb e9c6 91be e493 88be
00000110: f5a5 643e b3e4 b0bd 1eb2 163e 7120 a5be
00000120: 1525 5d3e 843f 94be 3dd7 8a3e f3d5 35be
00000130: 8a0d 3a3e aee7 8bbe 1c4d e7bd 16e2 713e
00000140: 4921 f5bd acfa 67be 4dda 243e 25f5 263d
00000150: 8b9a 25be d1f1 08be 84b3 903e 5611 a8be
00000160: 0358 e0bd 2b68 9bbe 2f6f 89be 084f 563e
00000170: 12d4 393e 26b3 853e bb09 9e3c bb5c 9ebe
00000180: 2933 47bd 5ba8 13be 2b2c a13d 39fc de3d
00000190: 2951 cbbd 2139 3c3e 3cfc 75bc 4d88 04be
000001a0: ae11 5e3e 6282 823e b89a a9bd 395a 96be
000001b0: 96f9 8fbe 2f1e ad3d fedd fc3d 361d f73d
000001c0: 08da 6ebd 6abd 983e 3551 813e 3f6c 16be
000001d0: acea e9bd 471c 50bc d402 83be 7d90 953e
000001e0: ebec 7fbe 3cae 05be 55f9 dcbc 89e4 913e
000001f0: 4de4 a3be afdb 7a3e 2e55 70bc f429 83be
00000200: d5c7 a83d 856a 35bd a46a 3cbe cc67 8dbe
00000210: 8149 ab3e 6703 04be 2d0c 963e fb9f 713e
00000220: 7ff3 cd3c db5a 97be e901 91bd ad57 033d
00000230: 85d6 5bbe 63f5 9abe 3b9a 2d3d 532e 833d
-0.16864847 -0.022241488 0.1561133 0.03981377 0.14951026 -0.3320407 0.26423946 0.20903903
0.038177244 0.25075048 0.28011432 -0.27144882 -0.07040462 0.02180861 0.025427558 -0.20700422
-0.27496454 0.14675917 0.32987213 -0.051593 0.003924107 0.17448603 0.14379501 0.17573842
-0.19104435 0.2007446 0.30243805 -0.2821131 0.27219513 0.10708417 0.035960227 -0.25501752
0.23898402 -0.2612293 -0.1031127 0.070009016 -0.30397183 0.31529993 -0.24846908 0.27078235
0.29209912 -0.24391669 0.23216796 -0.04364473 -0.0016697609 0.3257099 0.3657598 -0.1549491
0.20891619 0.23270275 -0.23719208 0.067455105 -0.16618875 0.2886981 0.1323565 -0.25916973
0.066626586 -0.29551697 0.33156785 -0.0075327847 0.08022365 -0.26240537 0.13349292 0.15887217
0.23352131 -0.0022452695 -0.2847207 -0.26675332 0.22328933 -0.08637371 0.14716384 -0.32251313
0.21596177 -0.2895471 0.2711734 -0.17757396 0.18169227 -0.27325195 -0.11294004 0.23621401
-0.11969239 -0.22654217 0.160989 0.04076113 -0.16172235 -0.13373496 0.2826196 -0.32825726
-0.10954287 -0.3035291 -0.2684264 0.20928586 0.18147305 0.26113242 0.01929175 -0.30930123
-0.048632775 -0.14419691 0.078697525 0.108879514 -0.099275894 0.18381168 -0.015013751 -0.1294262
0.21686432 0.254901 -0.082814634 -0.2936571 -0.28120106 0.08453023 0.12347029 0.120661184
-0.0583134 0.2983201 0.2525727 -0.1468973 -0.11421713 -0.012702054 -0.25588095 0.29211798
-0.24992721 -0.13054746 -0.02697436 0.2849467 -0.32010117 0.24497865 -0.014668746 -0.25617945
0.0824124 -0.044291038 -0.18400055 -0.27618253 0.33454517 -0.12891923 0.29306164 0.23596184
0.025140522 -0.29561505 -0.070804425 0.032066036 -0.21468551 -0.3026534 0.042383414 0.0640532

conv.0.bias f4 [16]
00000000: c9fe 21b3 f993 2739 97f2 b03b f733 fab4
00000010: f9da 6b3c 198e 07bc b6ab bc39 0208 34b3
00000020: 9b6c b5b5 bc7d a93a c600 adb5 0ff8 2ab5
00000030: b87b 8c35 9b85 1c33 cc8c d4b5 b47d fd33
-3.771746e-08 0.00015981485 0.0054000127 -4.6603938e-07 0.014395469 -0.008273625 0.0003598609 -4.19168e-08
-1.3517159e-06 0.0012931149 -1.288973e-06 -6.369091e-07 1.046682e-06 3.6443094e-08 -1.5836208e-06 1.1804096e-07

conv.1.weight f4 [16]
00000000: 05d9 783f 70d7 803f 14f6 793f bacd 743f
00000010: 87ab 7d3f 1e5e 773f 2f7e 743f 92d7 7e3f
00000020: 1b95 843f 2e2c 743f 9e91 743f 22f6 843f
00000030: 7cca 793f 4633 793f 8289 7e3f 65cf 813f
0.97206146 1.0065746 0.9764111 0.95626414 0.99089855 0.96627986 0.9550504 0.99547684
1.0358003 0.9537991 0.95534694 1.0387614 0.9757459 0.9734386 0.9942857 1.0141417

conv.1.bias f4 [16]
00000000: b310 6539 0fd4 f4bc 0b6c b9bc 0b7e 003d
00000010: baf5 ff3c 3209 703c d078 353c 933c 3a3a
00000020: 7d3d 25bc aca2 583d 3848 3abd 0d6a 883c
00000030: e332 963c 53f2 9d3b 4106 103d b206 a6bb
0.00021845363 -0.029886274 -0.022634527 0.031370204 0.031245101 0.01465063 0.011076167 0.0007104363
-0.010085461 0.05288951 -0.04547903 0.016652131 0.018334812 0.004820147 0.035162214 -0.005066716

conv.1.running_mean f4 [16]
00000000: 757f 2fc0 b511 473f 856c 07c1 018f c53f
00000010: 40d5 1ac0 f524 ecc0 be10 2c3f 033f d43f
00000020: 2ffa 063f d3e1 c340 a0d8 2e3e e82c 8dbf
00000030: 91d3 07c0 194a d13f c2a2 df3f 3183 6a40
-2.7421544 0.77761394 -8.463994 1.5434266 -2.4192657 -7.3795114 0.67213047 1.658173
0.527255 6.1213164 0.17074823 -1.1029329 -2.122288 1.6350738 1.7471545 3.6642573

conv.1.running_var f4 [16]
00000000: 3010 2542 30f3 2441 b31b 8f43 828c 2a42
00000010: 82e0 5142 f4fc 6c43 c870 ca40 dd40 9441
00000020: 7d97 8540 25d9 2b43 d980 4040 5d8c 5941
00000030: 9f32 b641 797c 0f42 bda8 0b42 fc96 6c42
41.26581 10.309372 286.2164 42.637215 52.469246 236.9881 6.3262672 18.531672
4.174742 171.84822 3.0078642 13.596768 22.774717 35.871555 34.914783 59.147446

conv.4.weight f4 [32, 16, 3, 3]
00000000: d013 003d 8837 0cbd b25a 1e3d ed49 2c3c
00000010: 0ebf b4bd 30cc 673c edbe dc3b 737b ba3b
00000020: 8fcf a43b 4091 7f3d fd09 3bbd 4c1d 563d
00000030: fe92 a33c cee8 03bb 31ea 88bd 08e1 c73d
00000040: a922 7fbc 2c42 25bd 923e bcbc a0e7 ffbb
00000050: 3b32 a1bb 239f 24bc 8e28 ef3b f776 8dbc
00000060: 449d 10bd 04dd 98bd 8eef 963c c711 933b
00000070: fdda 7cbd 4c71 9ebd 7a62 adbd 33de 5cbd
00000080: c96f 6dbd f958 86bd 93e4 a53c e95f 393b
00000090: cb25 7bbc 07f3 f4bc a458 1abb 6782 abbc
000000a0: d23f 183d 7285 5abd 46ed 14be aaa4 95bc
000000b0: 8ae5 68bb 1390 47bd ea78 953c f2e2 0cbd
000000c0: f70a b7bb e07a 663d db8d ac3d 3705 8dbd
000000d0: 9a41 d1bd 39fa 723c edf8 843d 7b51 9bbc
000000e0: 3805 b8bc 9820 c4bd 332c 6c3d e6d2 893d
000000f0: 6f83 e63c 89d0 26bc 8450 0abd 6c9e 993c
00000100: 1a1c 073a 20ce cbbc dee8 a8bd de70 9abd
00000110: 0857 3e3c 565d 13bd 369e 4a3c 27ec cfbd
00000120: 10c7 253d 58e9 8f3d 220b cabc 27fa 2cbb
00000130: d572 5fbd 01c4 7dbc d947 803c 461c ec3c
00000140: a4f0 61bd a1d4 653d 5ef1 0f3d c524 2dbb
00000150: cfd0 6fbc 4137 d5bc 1e41 fd3c a5b4 eabc
00000160: 0aea c1bd 3f1e 04bd be80 56bd e824 fabc
00000170: e842 d23a 80f2 8ebd a042 f8ba 2cec 78bd
00000180: 143d 943d 65c3 86bd 98d9 acbd 8653 14bc
00000190: b4c9 cbbc 0aa3 b63c 03c0 6c38 4872 e3bc
000001a0: aa22 bc3c 6048 8bbd d4c3 1dbe 61a7 e0bd
000001b0: cc9b 2d3d 3d65 803c 3f0a 94bb f4e2 483d
000001c0: 29d4 533d e180 483d 55ea 74bd 9b99 403d
000001d0: 5578 85bd 00fc 3a39 2ef7 263d 4fd1 1c3d
000001e0: c3c4 7d3d e0c5 49bc 3755 d4bb 138f c1bd
000001f0: dd92 cabd 72c4 abbd 592b d0bc 4bc6 15bb
00000200: 2cb8 35bd ffb9 a5bd 1183 f73c 0513 7ebd
00000210: 1503 29bd 81a3 2abd 97fa debd 916d 953d
00000220: 7b5b 64bd 286a 343d 8dd7 cb3d d200 2bbd
00000230: 0e47 babd 89f8 9c3d 1914 183d cc29 1ebd
00000240: f741 c7bc 2e48 63bd 928a 363d bd4b 513d
00000250: 5edb 263d 92dc a33d 0cd2 22bd 036a 3abd
00000260: 264e 5e3d 83f1 54bd 22c8 143d 0753 97bc
00000270: f98b 17bd 1232 5cbd 920f ca3c 6ddc e9bd
00000280: db83 cebd e63d 963c 3895 6b3d e0d7 34bd
00000290: 3bc1 b63c d67c 8e3d 2169 ac3d d0da e5bc
000002a0: ef31 3abd 3a54 903c 817f b3bb 0773 06bc
000002b0: 52cf 84bc ee68 0c3d 823d 83bd 9945 e137
000002c0: 338c 663b 74ae a2bd 9010 13be 18a5 01bd
000002d0: eefc 0cbd b735 ef3c f66a 82bd a6f3 cb3d
000002e0: 878f 8c3c 8f35 2c3d 30f7 edba b9e5 4c3d
000002f0: 5783 713d 3ef8 d33d 5f39 963d d59b 10bd
00000300: 1927 dbbc 148e 8e3d fe75 adbc a6d9 ca3d
00000310: afa7 953c 72a0 6b3d 86bb ccbd 5244 54bd
00000320: dd35 ed3b d414 b7bd a2c5 7ebd 169d 063d
00000330: 5ef6 e0bd f83b c0bd 06a4 e13c ddaa 653d
00000340: 07e9 88bd 1956 ac3c b3ff 003d 4aba 8dbd
00000350: 2e4e 8bbc 370b febc 3f89 fcbc 5687 c238
00000360: 330c 6dbd d0c7 2abd 4133 9a3d ad1f 883c
00000370: fab5 98bb ad04 71bc d910 a9bd b11a bc3c
00000380: 356b 113c f584 5e3d c669 53bc 3c67 fa3b
00000390: d3d2 11bd b0e7 8ebd 7503 9abd 28ca 30bd
000003a0: e76d 92bd 3696 fbbc 8e5b 243d 55a4 ca3a
000003b0: 9048 043d 5f54 063d b456 d8bc 6085 ee3c
000003c0: 207e dc3c aea1 b2bd cc60 8c3d 0d64 a5bd
000003d0: 705e 563d ff08 c8bc 2a26 7cbd acee 463d
000003e0: 94ce 433d ad56 ff3c d5c9 69bd 1f37 5d3d
000003f0: 1fbd 683d cae9 8abd c156 973c 6506 793d
0.031268895 -0.034232646 0.038660713 0.010515672 -0.08825503 0.014147803 0.0067366273 0.005690986
0.0050296257 0.06239438 -0.045663822 0.052274033 0.019967552 -0.0020127776 -0.066852935 0.09759718
-0.0155722285 -0.04034631 -0.022979055 -0.0078095943 -0.004919318 -0.010047707 0.0072985357 -0.01726864
-0.03530623 -0.074640304 0.018424775 0.004488203 -0.06173228 -0.077364534 -0.084660485 -0.053922843
-0.057967935 -0.06559939 0.020250594 0.0028285927 -0.015328835 -0.02990104 -0.002355137 -0.020936204
0.03717024 -0.05334992 -0.14543638 -0.018266995 -0.0035537207 -0.048721384 0.018246133 -0.03439612
-0.005586024 0.056269526 0.08425494 -0.0688576 -0.10217591 0.014830166 0.06492791 -0.018959751
-0.022463426 -0.09576529 0.05765934 0.06729679 0.028138844 -0.010181555 -0.033768192 0.0187523
0.0005154029 -0.024878561 -0.08247541 -0.07541059 0.01161743 -0.035977684 0.012366822 -0.10152464
0.040473044 0.07026929 -0.024663512 -0.002639422 -0.05455287 -0.0154886255 0.01565926 0.028822076
-0.055161133 0.05611098 0.035142295 -0.0026419621 -0.014637186 -0.026027324 0.03091484 -0.028650591
-0.094684675 -0.032255407 -0.052368872 -0.030535176 0.0016041668 -0.06979847 -0.0018940754 -0.060772106
0.07238212 -0.06580237 -0.0843994 -0.009053117 -0.024876453 0.02229454 5.644561e-05 -0.027764454
0.022965748 -0.06800914 -0.15406734 -0.10969425 0.042384908 0.015673274 -0.004517823 0.049044564
0.051716004 0.048951034 -0.05979379 0.04702149 -0.06517092 0.0001783222 0.040763073 0.03828555
0.061955225 -0.0123152435 -0.006479885 -0.09451117 -0.09891293 -0.08387078 -0.025411295 -0.0022853788
-0.044365093 -0.080921166 0.030213865 -0.062029857 -0.041262705 -0.041659836 -0.1088764 0.07296289
-0.055751305 0.04404655 0.099532224 -0.04174883 -0.09095584 0.07664592 0.03712854 -0.03861408
-0.024323447 -0.055488758 0.044565745 0.05109762 0.04073655 0.08001055 -0.039751098 -0.045511257
0.054273747 -0.051988136 0.036323674 -0.018472208 -0.036998723 -0.05375869 0.024665628 -0.11418996
-0.10083743 0.018340062 0.057515353 -0.044151187 0.022308936 0.06957404 0.08418489 -0.02805844
-0.045457777 0.017618287 -0.005477846 -0.008206136 -0.01621214 0.034279756 -0.06408216 2.6854499e-05
0.003517878 -0.079434305 -0.14361787 -0.031651586 -0.0344209 0.029200418 -0.063680574 0.099585816
0.017158283 0.042043265 -0.0018155333 0.050023768 0.058963146 0.10350083 0.073351614 -0.035304863
-0.026752042 0.06960693 -0.021174427 0.099047944 0.018268434 0.05752606 -0.09996705 -0.051822968
0.007239087 -0.089395195 -0.062200196 0.032864653 -0.10984491 -0.09386438 0.027544033 0.05607115
-0.066850714 0.021037148 0.031493854 -0.069202974 -0.017005052 -0.031011207 -0.030827163 9.275849e-05
-0.057872962 -0.041694462 0.07529307 0.016616667 -0.004660365 -0.014710587 -0.082551666 0.022961946
0.008875658 0.054326016 -0.012903636 0.007641701 -0.03560145 -0.06977785 -0.075201906 -0.04316154
-0.071498685 -0.030711275 0.040126376 0.0015460352 0.032295763 0.032795306 -0.02640853 0.029116333
0.02691561 -0.08722244 0.068544 -0.08075724 0.052336156 -0.024418352 -0.061559834 0.04856746
0.04780443 0.03116926 -0.057077248 0.054007646 0.056820985 -0.06782873 0.018473985 0.060797114

conv.4.bias f4 [32]
00000000: bac4 a3b6 e24e 2fb4 df3b 0c37 a3f4 6d36
00000010: febc 1037 6d9e 4d35 6c0d 7c35 173e aab3
00000020: d3ac 99b2 3651 2736 5ef5 0034 5892 86b4
00000030: 96d2 4935 1b95 bcb6 0124 c0b5 0c5b c4b5
00000040: 7c26 7ab5 e2e7 9e35 24aa 68b6 d4d4 d3b6
00000050: f6e2 0635 3863 6bb6 076e 1d35 40d8 b1b5
00000060: 094b c935 9cb9 bc32 1652 d035 0ea6 22b4
00000070: bdae e1b6 8046 9bb5 78ac 2235 4a7d 3cb7
-4.8806805e-06 -1.6326842e-07 8.35859e-06 3.545815e-06 8.627072e-06 7.659899e-07 9.3896847e-07 -7.927536e-08
-1.7890136e-08 2.493221e-06 1.2010193e-07 -2.5065924e-07 7.518478e-07 -5.6201948e-06 -1.4315593e-06 -1.4629636e-06
-9.318826e-07 1.1839404e-06 -3.4669729e-06 -6.3130665e-06 5.024916e-07 -3.5075482e-06 5.864717e-07 -1.3250465e-06
1.4997505e-06 2.1970486e-08 1.5521098e-06 -1.5147836e-07 -6.7258648e-06 -1.1568918e-06 6.060068e-07 -1.1234844e-05

conv.5.weight f4 [32]
00000000: a2f3 7e3f 0b7c 6f3f 39f5 773f c83d 7f3f
00000010: 8fdb 813f 4735 813f 88e4 6f3f de04 6d3f
00000020: a79f 753f 1cbf 7e3f 0268 7b3f 0b01 603f
00000030: 3c8f 7b3f 9b54 753f 07c5 803f f85c 713f
00000040: fcfe 723f 4e67 733f c04c 883f 54a7 823f
00000050: 5d2a 5e3f 2b76 753f 43fb 5f3f 4784 753f
00000060: 56eb 743f 5ca3 6c3f 7093 703f 8cb2 723f
00000070: 821c 833f 8b2f 753f 8957 703f c853 8d3f
0.99590504 0.9354865 0.96858555 0.99703646 1.0145129 1.0094384 0.93708086 0.9258555
0.95946735 0.9951036 0.9820558 0.8750159 0.98265433 0.9583222 1.0060128 0.94282484
0.94920325 0.95079505 1.0648422 1.0207314 0.8678339 0.95883435 0.8749277 0.95904964
0.95671594 0.92436767 0.9397497 0.9480369 1.0243075 0.9577567 0.9388357 1.1041193

conv.5.bias f4 [32]
00000000: 6af4 07bd dc0e 32bd b3b5 73bd 53da 73bd
00000010: 124a be3c 24ba f8bd 8d9c 9cbd 9c2b 33bd
00000020: 9448 74bc 2e6f 37bc 8d3d 24bd 5231 66bd
00000030: 58d6 fe3c 3595 94bd 3325 32bc 6928 51bd
00000040: c86d fabc ea03 bebc 9970 38bd f0a0 6fbb
00000050: 9b02 78bd 3c77 52bd 84b8 63bd ad27 99bd
00000060: ec2c a5bd 097f 153c 0a3a a8bc ce0c 1abd
00000070: b14c 4fbd 7aa9 89bd 901f 58bd 94c3 fdbd
-0.033192076 -0.043471202 -0.059499454 -0.059534382 0.023228679 -0.121448785 -0.07647047 -0.04374276
-0.014909882 -0.011195941 -0.040097762 -0.05619938 0.031108066 -0.072550215 -0.010873127 -0.05106393
-0.030569926 -0.023195226 -0.045029256 -0.0036564432 -0.06054936 -0.051383242 -0.05559589 -0.07478271
-0.08065209 0.009124526 -0.020535488 -0.037609868 -0.050610248 -0.06721778 -0.052764475 -0.12390819

conv.5.running_mean f4 [32]
00000000: 4c64 95bf b99d 2ebf 281b 00bf 2b77 d5bd
00000010: 9115 2dbf 6e4c fa3b 762b 333f 63c7 83bd
00000020: 5267 9a3f e81e bd3e 24b5 67be b1ec d1be
00000030: 8a8f 87be 6a38 05bf b8e8 54bf 78b1 b4bf
00000040: 237b 7d3f d0e2 6cbf c055 a1bf 0038 86bf
00000050: de8c 65bf 1f93 813e 5a16 e5bd 3cb5 f4bf
00000060: 1678 38bf 419f fe3e 434a 5d3f 53a1 d9be
00000070: e740 b0bf 27a2 94bf af46 893e 0c5c 5cbf
-1.1671233 -0.68209416 -0.5004144 -0.1042312 -0.6761103 0.0076385057 0.6998819 -0.064345144
1.2062781 0.36937642 -0.22627693 -0.41000894 -0.264767 -0.52039206 -0.831676 -1.4116659
0.99016017 -0.9253359 -1.2604294 -1.048584 -0.8966807 0.25307557 -0.11185904 -1.9117808
-0.72058237 0.49730876 0.8644144 -0.42505893 -1.3769807 -1.1611985 0.2681174 -0.8607795

conv.5.running_var f4 [32]
00000000: e0bc 383f 72db fe3f bc01 0d3f 5981 e13e
00000010: 0224 af3e 43ef 9d3e 7f80 5c3f f855 293f
00000020: 9d44 8e3f 93b3 f63e 1858 ce3e 35d2 963f
00000030: 9996 fc3e 962a 873e 82a5 aa3e 6208 8c3f
00000040: e6e6 543f 2f3e b13f 0f49 433f 3732 f63e
00000050: b1dd 293f 10ef e93e 872e 423f bc84 d83f
00000060: 905e 433f da17 313f 504e 463f c3d9 643f
00000070: 8f5b 733f 2ce6 303f b087 6d3f a1d8 f03e
0.721632 1.9910719 0.5508077 0.44043997 0.3420716 0.30846605 0.8613357 0.661468
1.1114689 0.4818388 0.40301585 1.17829 0.49333647 0.26399678 0.33329397 1.0940058
0.83164823 1.3847102 0.76283354 0.48085186 0.663539 0.45690203 0.75852245 1.6915507
0.76316166 0.6917702 0.77463245 0.8939478 0.9506158 0.69101214 0.9278517 0.47040275

conv.8.weight f4 [64, 32, 3, 3]
00000000: 13ed 513d 7895 983a e7a4 853c 7379 eabc
00000010: 1d14 3c3d d636 703d 1677 263c 377d 88bc
00000020: edb8 703d 6729 9e3c dd99 afbc 8404 8cbc
00000030: b593 483d cc9b 3fbd c792 903c 84a4 ce3b
00000040: d949 023d bbc6 c4bc d2a0 8b3d 7c2e 423c
00000050: bc98 bcbc 6408 a43c 1a3d dd3b 2ca7 233d
00000060: fb71 463d 7ed3 a63d 3929 bf3c f5cc e1bb
00000070: dedd 9d3d d3c7 f7bc c109 343c 4e58 543c
00000080: 8572 66bc f40f e13c dce4 543d d063 373c
00000090: 9a71 603b 00d4 763d 332c bc3c 8bda b03c
000000a0: 72fc 843d 8e5d 473b 0f3a 173d 49a8 653c
000000b0: 6cbd c83c 732d 86bd faa5 8e3c 69c2 3ebd
000000c0: 9df3 adbd 3607 72bd 05c1 2a3c 6e4e 9fbd
000000d0: fbe4 11bd 9d9f 0bbd 02b5 5c3a 9ba9 e13c
000000e0: 45c5 83bd d953 dcbc ad13 153d 6547 1e3d
000000f0: 4cb2 71bd f42e 0abd c97c dcbc a72c cd3c
00000100: e1fe 403d 4d3c 5c3d 5ceb 853c f51d 3b3d
00000110: 008f d0bc af08 7c3d ea56 fa3c 65f3 613d
00000120: 8f8a 95bc e888 4f3c cfd7 f43c 094e 413d
00000130: 6a81 403d f6b7 a039 7756 41bd 107e f23c
00000140: 01b1 b9bc bc03 a63d 013a 6e3c 5b9a 65bb
00000150: 6ef8 c23c 8f9a 98bb 11d5 ab3b c854 5d3d
00000160: f427 74bc 8f03 503d 6083 0ebd baad 11bd
00000170: 52ac 15bd 44b1 993c bec9 6f3c 69d5 0abc
00000180: 7f6b 42bd 9b4f 46bb 65e8 bdbc f116 cfbb
00000190: 73e9 843c 2248 7b3c 1dea 943b 087c 2dbd
000001a0: a956 2abc 3906 223c 59b1 0fbd 82a0 ea3c
000001b0: 1632 6cbd 3c68 3abd 0e15 89bc 3afb 77bd
000001c0: 7f4e 68ba b88a 0ebd f26b 42bc ed0b fb3c
000001d0: bbf7 383d 26d4 a63d 18cd 183d 92cf 273b
000001e0: 8eba 553d 59ed 2b3c 824e 98bb 3b04 c73c
000001f0: 9b53 563c 7990 0fbd acb2 053d 208e 233d
00000200: 39a6 683d e252 16bc 75dc 84bc c436 653d
00000210: 1273 723b 5667 8b3c a014 c7bc 698b a23c
00000220: 475b 7e3d 1277 8a3d fd6a 47bc 9a43 8fbc
00000230: 8b0c f83c e7bb 293d 1ecf 3dbd d916 713d
00000240: d40a 083d 1515 91bc c7ce cebc 3bec c83c
00000250: d135 433d 781c 483d a798 3e3d 7696 15bb
00000260: 26a4 6e3d d14f 1ebd f435 993c 34e7 4c3c
00000270: c5ad 14bd d39e 2cbd 801c 98ba 557f 9abc
00000280: e559 273d 579d 4f3d 4e12 e3bd 366f 6abd
00000290: d977 d9bc 6923 abbc c57e 07bd 0e35 84bb
000002a0: b70e 99bc d3cc acbc 2106 d53c 187b 2c3d
000002b0: fb57 f23c 417e 80bc 352f d73b e82c 303d
000002c0: 6626 c7bc 766d 483d 4db7 9c3d 1a3f 96bc
000002d0: 6464 1cbd d908 1e3d 92d1 19bc e9ea 1d3c
000002e0: a8a5 f13b 2fe0 c13c 9c91 683c faeb 0d3b
000002f0: 0d83 253d 0da6 9a3d 949b 563d a6ae 5c3c
00000300: 608d 2a3d 9d4f 8a3c f65c 443d 4d05 6b3d
00000310: 47a9 b2bb e87b 613c 6672 00bd fa36 e4bc
00000320: 8690 9d3c eaac 6abd eb72 1dbc 5ebe aebc
00000330: 0196 7abc 747d fc3c 9b54 1f3c 8c1f 943c
00000340: 7550 39bd c0d1 f4bb 313a a53c e249 683c
00000350: 2dff 963c 6f49 963c 696d 4d3c 7a31 703d
00000360: 17a7 3a3d e881 473d 944b 383d ea10 e93c
00000370: 4fe2 213d b6e0 cebb a24d e5bc 37d0 303d
00000380: 8d36 19bc 14b3 963d 214c 06bd 7ddb 29bc
00000390: e66c 3c3c 9aa3 2abd 6d46 2abd 6fb9 b43d
000003a0: c5ea 163d 3d99 be3c 7ae0 a43c a081 b33c
000003b0: 71b3 283d e97b 3e3d 01d6 a93d dd6d a4bb
000003c0: 7c22 5bbc 90dc fb3c af96 29bd 84eb 023d
000003d0: cad6 003d 4296 81bc a374 cabc 40ea 00bd
000003e0: 70c1 35bc b9e7 423c c801 b83c dc67 293c
000003f0: 7f10 25bd c6b4 74bd 8d48 13bd 18a3 c5bd
0.051251482 0.0011641225 0.016313983 -0.028622365 0.04591762 0.058646046 0.010160228 -0.01666127
0.05877011 0.019306852 -0.021435672 -0.017091997 0.04896899 -0.04677944 0.017648114 0.006306233
0.031808708 -0.024020543 0.068177834 0.011851903 -0.023022048 0.020023532 0.0067516686 0.03995435
0.048448544 0.08145808 0.023335086 -0.006890888 0.077083334 -0.03024665 0.010988654 0.012960507
-0.0140653895 0.027473427 0.05197607 0.011193231 0.00342474 0.060260773 0.022970295 0.021588584
0.064934626 0.0030420753 0.036920603 0.014017173 0.024504386 -0.065516375 0.017413128 -0.046572123
-0.08493731 -0.059088908 0.010421996 -0.07778631 -0.035618763 -0.034087766 0.0008419306 0.027546695
-0.064341106 -0.02689545 0.036395717 0.038642306 -0.059007928 -0.033736184 -0.026914971 0.025045706
0.04711807 0.053768445 0.01634758 0.045682866 -0.025458813 0.06153172 0.030559022 0.05516376
-0.018254546 0.012666918 0.029888062 0.04719356 0.04699842 0.0003065464 -0.0472016 0.029601127
-0.02266741 0.08106181 0.014540196 -0.003503463 0.023800101 -0.0046570967 0.0052439054 0.05403593
-0.014902104 0.050784644 -0.034793258 -0.03556607 -0.03654129 0.018761285 0.014635501 -0.0084737325
-0.047465798 -0.003025985 -0.023182103 -0.0063198735 0.016224599 0.015337022 0.00454451 -0.042354614
-0.010396638 0.009889179 -0.03508124 0.02864099 -0.057664953 -0.045509562 -0.016733672 -0.060542323
-0.00088617945 -0.03480026 -0.0118665565 0.030645335 0.04515813 0.08145933 0.037304968 0.00256059
0.052179866 0.0104936 -0.0046480307 0.02429401 0.013081457 -0.03504989 0.032641098 0.039930463
0.056799147 -0.009175034 -0.016218403 0.05596043 0.0036994857 0.017017048 -0.024301827 0.019841867
0.062098768 0.06760992 -0.012171504 -0.01748829 0.030279418 0.041438963 -0.0463401 0.05885968
0.03321345 -0.017710248 -0.025245083 0.024526706 0.047658745 0.048855275 0.0465323 -0.0022825277
0.058262013 -0.038650338 0.018702485 0.012506295 -0.036298532 -0.042143654 -0.0011605173 -0.018859545
0.040857214 0.05068716 -0.11087476 -0.057234965 -0.026546406 -0.020890908 -0.03307988 -0.004034645
-0.018683774 -0.021093762 0.026003899 0.04210958 0.029582968 -0.015685203 0.006566907 0.043011576
-0.024310302 0.048932515 0.07652149 -0.018340636 -0.038181677 0.038582657 -0.009388344 0.0096385265
0.007374484 0.02366647 0.014194872 0.0021655546 0.040408183 0.07551203 0.052394465 0.013469374
0.041638732 0.016883666 0.047940217 0.057378102 -0.0054523083 0.013762452 -0.0313591 -0.027858246
0.019233953 -0.05729381 -0.009609918 -0.021331009 -0.015294553 0.03082154 0.009724761 0.018081449
-0.045242745 -0.007471293 0.02016935 0.014177771 0.018432224 0.018345563 0.012538292 0.058640935
0.045569506 0.048707873 0.044993952 0.028450448 0.039522465 -0.0063134087 -0.02799112 0.04316732
-0.009351385 0.07358375 -0.032787446 -0.0103672715 0.011500573 -0.04165993 -0.04157107 0.08824431
0.036844987 0.02326643 0.02012657 0.021912396 0.041186754 0.04650489 0.08292771 -0.0050179795
-0.013374921 0.03074482 -0.04140347 0.031962886 0.03145484 -0.015818719 -0.02471382 -0.0314734
-0.011093482 0.011896067 0.022461787 0.010339703 -0.040298935 -0.05974271 -0.03595786 -0.09650248

conv.8.bias f4 [64]
00000000: 2a36 f235 5d77 dcb4 5c54 86b5 08e9 31b4
00000010: 955b cfb5 1c9d 2cb5 b02c 7634 7c0e 92b5
00000020: fecc 18b5 b790 b3b5 3410 c836 620f 8735
00000030: 6ca5 2bb6 66b9 8934 83b2 2635 9876 e5b4
00000040: 6470 3eb6 de77 bab5 9cda d1b4 699f 9db4
00000050: 7e5d 3d36 05b7 24b7 b1e2 19b6 0930 19b7
00000060: 2338 6936 9772 bc36 4b1e c8b5 722d 6835
00000070: 20c8 2a35 03fa 6936 f700 bcb5 0766 56b5
00000080: efd7 af34 46a8 df35 f6c6 2fb5 bd3d 2035
00000090: 6417 fd33 98b0 70b4 9eeb 8a36 2e11 5ab2
000000a0: 9152 94b5 3aa5 b135 5404 2db4 24e6 4034
000000b0: 29e2 48b4 3218 6c36 d180 5635 d9b5 1635
000000c0: d9ac 8d35 eade 52b3 82d8 33b6 2f11 7a33
000000d0: 559a 1835 cbb5 3db4 ca37 95b5 5213 e332
000000e0: 32cd d134 5dda 77b5 2eb1 03b7 c89b 3a35
000000f0: ac2e 2934 712d 8e35 6a45 b235 0b54 ee34
1.8046169e-06 -4.1065042e-07 -1.000833e-06 -1.6569186e-07 -1.5449356e-06 -6.430362e-07 2.2926793e-07 -1.0882063e-06
-5.6922715e-07 -1.3378657e-06 5.9623508e-06 1.0062761e-06 -2.5577274e-06 2.5653134e-07 6.209959e-07 -4.2740862e-07
-2.8377626e-06 -1.3892966e-06 -3.9088343e-07 -2.9359515e-07 2.8217614e-06 -9.817774e-06 -2.2930728e-06 -9.130695e-06
3.4752381e-06 5.6161766e-06 -1.4909978e-06 8.6492867e-07 6.3621155e-07 3.4865232e-06 -1.4007372e-06 -7.986968e-07
3.2753402e-07 1.6663769e-06 -6.5482106e-07 5.9694486e-07 1.1785485e-07 -2.2415986e-07 4.14015e-06 -1.2693176e-08
-1.1050889e-06 1.3235615e-06 -1.6113455e-07 1.7965118e-07 -1.8708728e-07 3.5180824e-06 7.9908665e-07 5.614398e-07
1.0555624e-06 -4.9097174e-08 -2.6799103e-06 5.822329e-08 5.6848995e-07 -1.7668133e-07 -1.1117602e-06 2.6435064e-08
3.9078583e-07 -9.233243e-07 -7.849461e-06 6.951709e-07 1.575633e-07 1.059305e-06 1.3282236e-06 4.4392104e-07

conv.9.weight f4 [64]
00000000: 0cca 8b3f 23a6 883f 2431 8c3f bebb 8a3f
00000010: bbc4 833f 290a 8b3f 342f 893f 04d3 8b3f
00000020: c1f3 8a3f a363 8b3f 369b 873f 7b0c 8d3f
00000030: 13d6 883f 622b 8b3f eb24 873f 2cda 8b3f
00000040: a860 8b3f 269a 8b3f a84e 8b3f 06af 8a3f
00000050: 7d6c 8d3f 5ea4 863f b45b 883f ee2d 863f
00000060: 5a0d 8e3f 6f0a 8c3f cf7c 8b3f ba3a 8c3f
00000070: 53ec 893f 0a2d 8b3f 4677 863f 612f 893f
00000080: e9cf 883f 7690 8a3f fd31 8c3f c89b 873f
00000090: 57c4 893f 8af4 843f 3e09 863f 73cd 893f
000000a0: 03e3 8b3f ab66 873f 1bf2 893f 9f48 8b3f
000000b0: e930 8c3f 47d8 893f 1387 8c3f 0114 8c3f
000000c0: c3fa 8a3f 332f 893f 69e9 843f 6b04 8c3f
000000d0: d0ac 8b3f 408d 883f 0de8 873f cf28 8e3f
000000e0: 5fc6 8e3f 67e8 8c3f 912e 8c3f 7282 8b3f
000000f0: d7fe 8a3f b60b 883f b29c 8a3f bc70 8c3f
1.0921035 1.0675701 1.0952497 1.0838544 1.0294412 1.0862476 1.071753 1.0923772
1.0855638 1.0889782 1.0594242 1.1019434 1.069033 1.0872614 1.0558141 1.0925956
1.0888872 1.0906417 1.0883379 1.0834663 1.1048733 1.0518911 1.0652986 1.0482767
1.1097825 1.0940684 1.0897464 1.0955422 1.0775245 1.087312 1.0505149 1.0717584
1.0688449 1.0825336 1.0952755 1.0594416 1.0763043 1.0387127 1.047157 1.0765823
1.0928653 1.0578207 1.077701 1.0881537 1.0952426 1.0769128 1.0978721 1.0943605
1.0857776 1.0717529 1.0383731 1.0938848 1.0912113 1.0668106 1.0617691 1.1106204
1.1154288 1.1008424 1.0951711 1.0899184 1.0859021 1.0628574 1.082907 1.0971904

conv.9.bias f4 [64]
00000000: 2fba ce3d 3d9f 8b3d 2244 e73d 3e05 b33d
00000010: 9a2b 1f3d f762 be3d fb31 d23c d892 d93c
00000020: 7dd7 dd3d 0a94 b53d 9fec d43c db8c f13d
00000030: 2d1b 9c3c 7330 d93d 740b 343c 498f ed3d
00000040: 5757 c73d 67e4 d13d e55e c13d afd8 b93d
00000050: 97de 033e 126b afba f95b 913c 5904 013c
00000060: bb6c 183d 9890 bd3d d86f c83d a00a dd3d
00000070: 8989 af3d 82c2 6a3c 1f28 de3b ea81 ed3c
00000080: 6071 02bb 1e43 ce3d c39f ca3d 2ea4 8a3c
00000090: b1a1 f73c c437 863c 5bcc 693c d93d d83b
000000a0: 939d de3d ccea ef3c 5cdd aa3c d060 ba3d
000000b0: 10e8 0d3e 952d 48bb 3324 e43d e355 c93d
000000c0: 683e bf3d 2af5 b4ba 609a 893a 8b3b 103e
000000d0: ddba c73d 8529 d23b da58 3eba aa2b f83d
000000e0: 370d 133e 8442 f33d 890d e43d b59d aa3c
000000f0: ef89 cb3d 69d0 203c 838c 483d 210d d63d
0.100941055 0.06817482 0.11292292 0.08741234 0.03885994 0.0929622 0.025658598 0.026559278
0.10832117 0.08866127 0.025991736 0.11794444 0.019055927 0.10604944 0.010989059 0.11599595
0.09733456 0.102486424 0.09441928 0.09074532 0.1287788 -0.001338335 0.017744051 0.007874572
0.03721307 0.09256095 0.097869575 0.10793042 0.085711546 0.014328601 0.006779685 0.028992612
-0.0019904003 0.10071395 0.098937534 0.01692399 0.030228468 0.016384013 0.014269914 0.0065991697
0.10869899 0.029286765 0.020857506 0.09100497 0.13858056 -0.0030544747 0.11139717 0.09830835
0.09338075 -0.0013805975 0.0010498278 0.14085214 0.09752438 0.006413641 -0.0007261165 0.12117703
0.1436051 0.11877921 0.11135394 0.020827154 0.09938418 0.009815314 0.048962127 0.10451723

conv.9.running_mean f4 [64]
00000000: 4da9 173f f20b 263f aeec e93e 2d56 0c3f
00000010: b32b 11bf 8743 7c3e 2161 08bf 0baa 10bf
00000020: 326a 973d 10b9 263f ca7c 0ebe f4dc 313f
00000030: 2f95 09bf 64cc 553f d4d5 13bf 40b4 ee3c
00000040: fb9b c0be b4e0 9f3e ba84 363f 45c2 e53d
00000050: 5d4c 393d b6bd fcbe 1cd2 c8be 4549 22bf
00000060: fb72 d6be 48fd 64bd 26d3 113e b551 003f
00000070: a57e da3e 82ca fcbe 402b cebe 6977 0cbf
00000080: 5ac6 20bf 2d83 52be d484 c63e c2fc 8fbe
00000090: dfd2 a0be dee4 02bf 9bdc 99be b960 acbe
000000a0: 9af0 133f dc44 07bf 1bb7 2bbf 0875 3abe
000000b0: 3571 6bbd 4574 c6be f0ca c53e c9ad 79be
000000c0: 168d 663e 5429 e6be 115d 07bf f31e a73e
000000d0: b52c 173f 6280 b5be d91b 01bf cd99 d83e
000000e0: 0f3c 613e fe35 8bbe 0616 553e 8c72 8bbe
000000f0: 9e74 ebbd 421f e3be dc50 b9be 5b04 813e
0.5924271 0.6486198 0.45688385 0.54818994 -0.56707305 0.24635135 -0.53273207 -0.56509465
0.07393302 0.6512613 -0.13914791 0.6947777 -0.5374326 0.83515 -0.5774815 0.029138684
-0.37619004 0.31226122 0.71296275 0.112186946 0.04523884 -0.49363488 -0.392228 -0.6339305
-0.41884598 -0.05590561 0.14240703 0.50124675 0.42674747 -0.4937325 -0.40267372 -0.54869705
-0.6280266 -0.20557852 0.38773215 -0.28122526 -0.31410882 -0.51130474 -0.3005112 -0.33667544
0.57789004 -0.52839446 -0.6707627 -0.18208706 -0.05748101 -0.38760582 0.38631392 -0.243827
0.22514758 -0.44953406 -0.52876383 0.326408 0.5905259 -0.3544951 -0.5043312 0.4230484
0.21995567 -0.2718963 0.20809183 -0.2723583 -0.11496852 -0.44359785 -0.36194503 0.25198635

conv.9.running_var f4 [64]
00000000: 628c d63e f631 d23e 97e3 f23e 20b7 cb3e
00000010: f878 6c3e 69a3 7f3e 2ab4 6a3e 679d 873e
00000020: 6b2f f93e e433 e13e 1136 ac3e 9fa7 dd3e
00000030: 7857 763e 677b d03e c138 893e f223 103f
00000040: 126c cf3e f6dd dd3e 14c7 c23e 5d10 c83e
00000050: 1d73 a83e c034 653e ca0e 903e 33d2 843e
00000060: b1c9 743e ba62 a03e cc3a a53e 75d8 953e
00000070: 2da4 fc3e 39bd 7d3e 021f 903e eb9c 803e
00000080: a9b6 703e 6549 123f ff48 b83e 377b 353f
00000090: 8d30 2b3f 086d 5d3e 9a8f 9e3e 7301 863e
000000a0: 686e cf3e 7971 6e3e fdeb aa3e bb3f ab3e
000000b0: 74bc 193f bb13 523e a602 a83e 9b50 263f
000000c0: 164c ce3e 8dfc 663e ced8 5d3e 8ed3 033f
000000d0: 814c e53e 67d4 6c3e 0222 6d3e b5ad c53e
000000e0: 2be3 b43e 3b1d 0f3f e924 c03e ba8a 823e
000000f0: 9fca 933e 4b0d 3c3e 9a89 e13e 3c5f bb3e
0.4190398 0.41053742 0.47439262 0.3978815 0.23093021 0.2496468 0.2292029 0.26487276
0.4866899 0.43984902 0.33635 0.43291947 0.24056804 0.4071915 0.26801112 0.5630485
0.4051214 0.43333405 0.3804251 0.39074984 0.32900324 0.22383404 0.28136283 0.2594162
0.23905064 0.31325322 0.3227142 0.29266706 0.49344006 0.24779214 0.28148657 0.2511972
0.2350718 0.5714324 0.35993192 0.70891136 0.6687096 0.21623623 0.30968934 0.2617298
0.4051392 0.23285474 0.3338317 0.3344706 0.6005318 0.20515339 0.3281452 0.64966744
0.40292424 0.22557278 0.21664736 0.5149468 0.4478493 0.231279 0.23157504 0.3860909
0.35329565 0.5590398 0.3752816 0.25496465 0.28865525 0.18364446 0.44050294 0.36596096

fc.weight f4 [1, 64]
00000000: c5c4 0dbe cb12 49be 9ce2 12be aac2 32be
00000010: 85a7 a63d 33ea 21be 9b1b d43d 9940 db3d
00000020: 5be9 e5bd 3350 5ebe 8906 e53d d152 13be
00000030: 9dfd da3d b65e 0ebe 1dcf bd3d cf2e 08be
00000040: 2c00 38be 7f90 43be 5f3c 48be c842 59be
00000050: 760c dbbd 1b80 223e aef8 193e 440b 213e
00000060: a86f 003e af5a 59be 2040 3cbe e811 1dbe
00000070: 00ae 35be d343 f83d 1f19 0e3e 6cd0 c13d
00000080: 8dd4 113e b2f1 f9bd 1a60 46be 4356 0f3e
00000090: 2c17 dd3d 7884 193e 0620 e63d 46ab 493e
000000a0: 0d37 03be 94b4 003e d214 c63d ebfe 39be
000000b0: 4573 e9bd 4ddc 533e 8ce1 3cbe f8b8 41be
000000c0: ecf9 4ebe fb81 483e 693f 1c3e 0871 e8bd
000000d0: e31f 37be 3b9a 413e bc44 383e 0321 01be
000000e0: 6efb e9bd d036 0cbe 134d 0bbe 687f 283e
000000f0: eec8 1dbe feec 113e 352d d43d 2050 42be
-0.13844593 -0.19636075 -0.14344257 -0.17457071 0.081374206 -0.15811996 0.10356828 0.107056804
-0.1122615 -0.21710281 0.11182887 -0.1438706 0.10692904 -0.13903317 0.09268019 -0.13299106
-0.17968816 -0.1909809 -0.1955428 -0.21216881 -0.10695736 0.15869181 0.1503627 0.15726954
0.12542593 -0.21226 -0.18383837 -0.15338862 -0.17742157 0.121223114 0.1387677 0.094635814
0.14241238 -0.12204303 -0.19372597 0.1399775 0.10795435 0.14991939 0.11236577 0.19694242
-0.12813969 0.12568885 0.0967194 -0.1816365 -0.11398939 0.20689507 -0.18445414 -0.18918216
-0.20212525 0.19580834 0.15258564 -0.11349684 -0.17883258 0.1890649 0.1799497 -0.12610249
-0.114249095 -0.13692784 -0.1360362 0.16454852 -0.1540868 0.14250562 0.10360185 -0.18975878
